data/model.pt (torch, 425863 bytes, 6 tensors)

layer1.weight f4 [124, 784]
0	0xb98c3000	-0.00026738644
1	0x3c9cf2b5	0.0191587
2	0xbcf0ccac	-0.02939447
3	0xbcd75093	-0.026283538
4	0xbc615ece	-0.013755513
5	0x3c1ce90e	0.009577049
6	0xba397f25	-0.0007076136
7	0x3ce7fa11	0.028317483
8	0xbb4fb637	-0.0031694302
9	0x3c1ad60e	0.009450449
10	0xbc30d67c	-0.010793325
11	0xbbe609a5	-0.0070201927
12	0xbd0bc0fc	-0.03411959
13	0xbcc1c3cc	-0.023652934
14	0xbc71359c	-0.014722254
15	0x3aad6801	0.0013229848
16	0x3c6753dc	0.014119115
17	0x3caf8cae	0.021429386
18	0xbcc658a1	-0.024212183
19	0xbc7eced8	-0.015552245
20	0x3c5488ae	0.01297204
21	0x3cf2f2a3	0.029656714
22	0xbbf0d853	-0.0073500066
23	0x3cdaef45	0.02672542
24	0xbbbca16e	-0.0057565486
25	0x3b77aa5c	0.003779075
26	0x3d04754f	0.032338437
27	0xbd07b476	-0.033131085
28	0xbcb82f51	-0.0224835
29	0xbc14234a	-0.009041617
30	0xbc6416b3	-0.013921428
31	0x3cfcc82e	0.030857172
32	0xbcbda38c	-0.023149274
33	0xbc86ae25	-0.01644046
34	0xbccc66fa	-0.024951447
35	0xbd090168	-0.033448607
36	0xbcaac92a	-0.020847876
37	0x3cfb7e6c	0.030699931
38	0x3c828cfe	0.015936371
39	0x3c8dcd25	0.017309735
40	0x3af6304a	0.0018782702
41	0xbc95ff1e	-0.018310126
42	0x3bc5fe93	0.0060423105
43	0xbd089612	-0.033346243
44	0xbcd366fa	-0.025805939
45	0xbc96d450	-0.018411785
46	0x3cb8982c	0.022533499
47	0x3cab8a75	0.020940045
48	0xbc81c105	-0.01583911
49	0xbaa8e825	-0.0012886567
50	0x3cbb1e01	0.022841455
51	0x3d116d6f	0.035504755
52	0x3c683b98	0.0141743645
53	0x3b9e18e5	0.004824745
54	0x3cc42a47	0.02394594
55	0xbcac444a	-0.021028657
56	0x3bda1365	0.006655144
57	0xbce2d50e	-0.027689483
58	0xbccac6f7	-0.024753077
59	0xbc97233a	-0.018449415
60	0x3c846175	0.016159752
61	0x3c6b5241	0.014362873
62	0xbcad4e31	-0.021155449
63	0x3c30c69c	0.01078954
64	0x3ca09d10	0.019606143
65	0xbb93b5dc	-0.0045077633
66	0x3ab2bbb7	0.0013636266
67	0x3c079493	0.008275169
68	0x3cb58125	0.022156307
69	0x3d0c7673	0.03429265
70	0xbce17663	-0.027522271
71	0xbc566fea	-0.013088206
72	0x3c65f78a	0.014036069
73	0x3cf268ee	0.02959105
74	0x3cfe990a	0.031078834
75	0x3d011382	0.031512745
76	0x3be8e765	0.0071076625
77	0xbcfe6a41	-0.031056525
78	0x3b5750a5	0.0032854464
79	0xbcb708c5	-0.022343049
80	0xbd0854e3	-0.03328408
81	0x3d01f948	0.031731874
82	0x3cde75a5	0.027155707
83	0xbd11ec92	-0.035626
84	0x3bdb0b77	0.0066847163
85	0xbbc52577	-0.006016429
86	0xbbc09565	-0.005877184
87	0xbc85ed35	-0.01634846
88	0x3c610533	0.01373415
89	0xbcad4a85	-0.021153698
90	0x3c568221	0.013092549
91	0x3c93f4ac	0.018061005
92	0x3cd1718e	0.025566842
93	0x3c5aca9c	0.01335397
94	0xbd10c8bd	-0.03534769
95	0xbcbdca4a	-0.023167748
96	0x3c9215d7	0.01783268
97	0x3bf4f141	0.007475049
98	0xbce43af5	-0.027860144
99	0xbca877e5	-0.020564983
100	0x3d099e42	0.033598192
101	0x3cc523ce	0.024064925
102	0xbc7f2313	-0.015572327
103	0xbc134585	-0.008988743
104	0xbd0b59fc	-0.034021363
105	0xba28476e	-0.0006419335
106	0xbcdc52d3	-0.026894962
107	0xbce1ad4c	-0.027548455
108	0xbb00f6ee	-0.0019678432
109	0x3bafb66e	0.0053623235
110	0xbc6fa23c	-0.014626082
111	0x3cad9af7	0.021192057
112	0xbcb20a8a	-0.021733541
113	0x3d04bc3c	0.032406077
114	0x3cc87fca	0.024474997
115	0xbcf6b873	-0.03011725
116	0xbc11a205	-0.008888726
117	0x3ad339b7	0.0016115223
118	0x3baabef7	0.005210753
119	0x3c0ac7e5	0.00847051
120	0x3c65a06a	0.0140152965
121	0x3b0c335c	0.0021392917
122	0xbc8ec107	-0.017426027
123	0x3c8a710c	0.016899608
124	0xbd0c530d	-0.03425889
125	0xbcad68b7	-0.021168096
126	0xbc127a8e	-0.008940352
127	0xbc8e83f5	-0.017396906
128	0xbc4cb3d7	-0.012494049
129	0xbcefcc43	-0.029272204
130	0xbbf8f001	-0.00759697
131	0x3bfa27f8	0.007634159
132	0xbcbe99ac	-0.023266636
133	0xbaf03bb8	-0.0018328344
134	0x3cd17001	0.025566103
135	0xbb709c81	-0.0036714377
136	0x3a82196e	0.0009925792
137	0xbb49eb25	-0.0030810323
138	0x3becd813	0.0072279065
139	0x3cba074a	0.022708554
140	0x3d0a918f	0.03383022
141	0x3cb9cc9a	0.02268057
142	0x3d0ae2ba	0.03390763
143	0xbb294625	-0.0025829163
144	0xbd03695f	-0.03208291
145	0xbc8ab393	-0.01693133
146	0x3cc736a3	0.024318045
147	0xb972c36e	-0.00023151722
148	0xbc916bec	-0.017751656
149	0xbce03371	-0.02736828
150	0xbd08e6dc	-0.03342329
151	0xbcf6eec5	-0.030143151
152	0xbbed6081	-0.00724417
153	0x3ca072ac	0.01958593
154	0x3c9e2d17	0.01930861
155	0xbd0d1526	-0.034443997
156	0x3cb68035	0.02227793
157	0xbce4f09e	-0.027946766
158	0xbbf76913	-0.0075503676
159	0xbc6d426a	-0.014481166
160	0xbbe16a38	-0.0068791173
161	0xbbe5c6ee	-0.0070122397
162	0xbd0344fd	-0.032048214
163	0xbcfc9e05	-0.030837068
164	0xbbb7202e	-0.005588553
165	0x39f2264a	0.00046186364
166	0xbc84e86a	-0.016224105
167	0x3c5c6c41	0.013453544
168	0xbd03aa6b	-0.032144945
169	0xbb1df56e	-0.0024102586
170	0x3d00a582	0.03140784
171	0xbc6eacd3	-0.014567572
172	0x3d0418b2	0.032250114
173	0x3c53e965	0.012934064
174	0xbd040464	-0.03223075
175	0x3cb91bf3	0.022596335
176	0xbb870b65	-0.0041212314
177	0xbc829b1c	-0.015943103
178	0x3ce9f4aa	0.028559048
179	0xbcec6cf3	-0.028860545
180	0x3b7b27a5	0.003832319
181	0xbbf5056e	-0.007477454
182	0x3cd0edd1	0.025504025
183	0x3c2356e5	0.009969448
184	0x3c8c9507	0.017160906
185	0x3c4ea601	0.012612821
186	0xbc0cb64a	-0.008588383
187	0xbbf61e13	-0.0075109093
188	0xbcf11a4a	-0.02943148
189	0x3c9e8733	0.019351577
190	0x3ce84b9a	0.028356362
191	0x3cc82f45	0.024436602
192	0xbcce5fa1	-0.025192084
193	0x3ad0c74a	0.0015928533
194	0xbcce3e5c	-0.02517622
195	0xbca10e53	-0.01966015
196	0xbcaa7ba5	-0.020810911
197	0x3c47f83c	0.01220518
198	0xbcae58e1	-0.021282615
199	0xba4c424a	-0.000779186
200	0x3ac4ed4a	0.0015024331
201	0x3cbc992a	0.023022253
202	0xbcdd291e	-0.026997145
203	0xbcc8da97	-0.024518294
204	0xbca9e28e	-0.020737913
205	0x3cccc7d1	0.024997624
206	0xbc5256a1	-0.012838037
207	0x3cf6c7dc	0.030124597
208	0x3c539793	0.012914556
209	0x3b94304a	0.004522358
210	0xb98b62dc	-0.00026585802
211	0xbbe7580a	-0.0070600556
212	0x3b92d4dc	0.004480941
213	0xbc059d40	-0.008155167
214	0xb9839125	-0.00025094408
215	0x3b955200	0.0045568943
216	0xbce4d9d3	-0.027935898
217	0xbc99588c	-0.01871898
218	0x3cec3fd3	0.028839028
219	0xbced6f75	-0.02898381
220	0xbb28114a	-0.002564507
221	0x3d10b625	0.035329957
222	0x3c536013	0.012901324
223	0x3a848993	0.0010111801
224	0xbcfd8b9a	-0.030950356
225	0x3c90eef5	0.017692069
226	0xbcd0649c	-0.0254386
227	0xbc2619e5	-0.01013801
228	0xbc445333	-0.011982727
229	0xbbad4df7	-0.005288835
230	0x39ccd093	0.00039065312
231	0x3cf150ac	0.029457413
232	0x3b9218dc	0.00445853
233	0x3d0306ee	0.03198903
234	0x3cb2f837	0.021846874
235	0xbcb8f7be	-0.02257907
236	0x3c833830	0.016018003
237	0xbcced14e	-0.025246289
238	0xbc77ff8e	-0.015136613
239	0x3c2c1a93	0.010504383
240	0x3c4135a5	0.011792575
241	0x3cdb7ecc	0.02679386
242	0xbc3c5de5	-0.011496996
243	0x386fcdb8	5.717363e-05
244	0x3c969f67	0.018386556
245	0xbd0d78c6	-0.034539007
246	0x3cd38603	0.025820738
247	0xbcf1ef13	-0.029532945
248	0x3a010925	0.0004922322
249	0xbbc6f7dc	-0.0060720276
250	0xbc9a16e7	-0.018809749
251	0x3b9aad8a	0.0047203945
252	0x3cf1eecc	0.029532813
253	0xbc2b0c77	-0.010439984
254	0xbcadb2ac	-0.021203361
255	0xbc586897	-0.01320853

layer1.bias f4 [124]
0	0xbc3491aa	-0.011021057
1	0x3d09fcbc	0.033688292
2	0xbc8660ee	-0.016403642
3	0x3d0789e4	0.033090487
4	0xbcbdb50c	-0.023157619
5	0xbcab0cf7	-0.020880206
6	0xbbfef4ca	-0.007780646
7	0xbc8dcfc3	-0.017310983
8	0xbc9d0cfc	-0.01917123
9	0x3c600085	0.013671999
10	0x3ccd906e	0.025093284
11	0xbc7ace98	-0.015308045
12	0x3cfc8381	0.030824425
13	0x3ce824ac	0.028337799
14	0xbcb51f0e	-0.022109535
15	0x3cd13e2a	0.025542337
16	0x3cb1383c	0.02163326
17	0x3d03b2ba	0.03215287
18	0x3c870145	0.016480098
19	0xbc409777	-0.011754862
20	0x3c0f5d3c	0.008750256
21	0x3cff8cfe	0.03119516
22	0x3c8aa9da	0.016926695
23	0x3c1e7b5c	0.009672966
24	0x3c05e4dc	0.00817224
25	0xbcbff6a7	-0.023433043
26	0xbbbf024a	-0.0058291303
27	0x3d1049be	0.035226576
28	0x3c0cfa80	0.008604646
29	0xbc76acb8	-0.015055828
30	0x3c88e0cc	0.016708754
31	0x3c159ace	0.009131147
32	0x3c55320a	0.0130124185
33	0x3cda4c17	0.02664761
34	0x3c43a2bc	0.011940654
35	0xbcf293d5	-0.029611507
36	0x3bad085c	0.0052805375
37	0xbcea2ab8	-0.028584823
38	0x3b088325	0.0020830121
39	0xbc0b6e53	-0.00851019
40	0xbccd8db5	-0.025091985
41	0xbc11e36e	-0.008904321
42	0x3d00c86a	0.03144113
43	0xbcd1a3e3	-0.025590843
44	0xbc9bb84e	-0.019008782
45	0x3c8fed3e	0.01756918
46	0xbd0cf298	-0.034411043
47	0xbc485837	-0.012228063
48	0x3cc3e6c7	0.023913754
49	0xbd0716d5	-0.03298076
50	0xbcffd311	-0.031228574
51	0xbc813f7e	-0.015777346
52	0xbd06f4fe	-0.032948487
53	0xbd0006f0	-0.031256616
54	0x3c2f9a25	0.010717903
55	0x3cfaf791	0.030635627
56	0x3ce843ea	0.028352696
57	0x3ca93b5e	0.020658191
58	0x3c0fa840	0.008768141
59	0x3c17f993	0.009275812
60	0xbc825dca	-0.015913863
61	0xbc76686a	-0.015039543
62	0x3c971035	0.018440345
63	0x3d0c04c5	0.034184236
64	0x3d0d8390	0.034549296
65	0x3c01c1ae	0.007919712
66	0x3d050fe4	0.032485858
67	0x3b83edd3	0.0040261536
68	0xbc9648ea	-0.018345315
69	0xbc31d0c5	-0.010852997
70	0x3cd9b03c	0.026573293
71	0x3cd2e08c	0.025741838
72	0x3b59f381	0.0033256712
73	0xbc557093	-0.013027328
74	0x3c22f97c	0.009947177
75	0x3b276093	0.002553974
76	0xbd10944f	-0.035297688
77	0xbc9b3c80	-0.018949747
78	0xbd098488	-0.033573657
79	0x39a519b7	0.00031490411
80	0x3cbe8d5c	0.023260765
81	0x3c67074a	0.014100859
82	0xb9e0376e	-0.00042765908
83	0xbd01963a	-0.031637408
84	0x3d0a6d38	0.033795565
85	0x3cfd36fa	0.030910004
86	0xbc79a4d3	-0.015237051
87	0x3c96e480	0.018419504
88	0xbca8ea3e	-0.020619508
89	0xbc9db2c3	-0.01925028
90	0xbaf7624a	-0.0018873897
91	0xbc997625	-0.018733094
92	0x3cb45781	0.022014381
93	0xbbd8a3d3	-0.0066113262
94	0x3c92a63e	0.017901536
95	0x3cbdeed1	0.023185166
96	0x3bcb01f7	0.0061953026
97	0x3cc9bf43	0.024627334
98	0x3a150edc	0.0005686113
99	0x3beddff8	0.007259365
100	0xbd078e22	-0.033094533
101	0x3cb3d515	0.021952191
102	0x3c9d9c05	0.019239435
103	0x3b742dca	0.0037258738
104	0x3d10596b	0.035241526
105	0xbd0e7dca	-0.03478793
106	0xbb8fe8e5	-0.004391777
107	0xbc6dc9aa	-0.0145134125
108	0xbc0dea77	-0.008661858
109	0x3c682518	0.014169
110	0x3bceeb2e	0.0063146567
111	0x3c9a4027	0.018829418
112	0xbd0a9604	-0.033834472
113	0xbd0a2cc5	-0.0337341
114	0x3c4c7dfc	0.012481209
115	0x3d0ecb94	0.034862116
116	0xbc34604a	-0.011009285
117	0x3d099474	0.03358884
118	0x3d10a36e	0.03531211
119	0xbc77131c	-0.01508024
120	0x3c4845aa	0.01222364
121	0xbcc9b21a	-0.024621058
122	0x395e5db8	0.00021206483
123	0xbbb83b8a	-0.005622332

layer2.weight f4 [64, 124]
0	0x3d9e8ad2	0.077413216
1	0xbc7824f6	-0.015145531
2	0x3da8746a	0.08225329
3	0x3b805a40	0.0039170086
4	0xbd373d3c	-0.044736132
5	0x3bec6c62	0.0072150687
6	0xbbbb113d	-0.005708842
7	0xbd8270be	-0.0636916
8	0xbd839f3f	-0.06426858
9	0x3d532c33	0.051555824
10	0xbd4a515b	-0.049393993
11	0xbd7ef32a	-0.062243618
12	0xbd07ad52	-0.033124276
13	0x3baabb4f	0.005210317
14	0x3d29b5da	0.041433193
15	0x3d82c2a7	0.06384783
16	0xbb2d759e	-0.002646781
17	0x3d9c60f0	0.07635677
18	0x3db49b6f	0.08818709
19	0xbd885602	-0.0665703
20	0xbb70e3a9	-0.003675679
21	0x3cb77964	0.02239675
22	0xbd9bc9c7	-0.07606845
23	0xbd9c9bba	-0.0764689
24	0x3cb79b23	0.022412842
25	0xbd23d64e	-0.0399993
26	0x3dae001a	0.08496113
27	0x3d1124ca	0.035435475
28	0xbceaedfb	-0.028677931
29	0xbd3fb82e	-0.046806507
30	0xbd6170e6	-0.05503931
31	0xbda7a0d2	-0.08184971
32	0xbd4012f3	-0.04689307
33	0x3cc73e4a	0.024321694
34	0x3d2fefea	0.04295341
35	0xbd998d8d	-0.07497702
36	0xbc002c74	-0.007823098
37	0xbc3427f3	-0.010995853
38	0x3d36a897	0.044594374
39	0xbd8d8d9f	-0.06911778
40	0x3dac1490	0.084023595
41	0xbc685407	-0.01418019
42	0xbcd9bc0f	-0.026578931
43	0x3d1fb3f3	0.038989972
44	0xbc09ce86	-0.008411055
45	0xbd6e145a	-0.058124878
46	0xbb37f53b	-0.0028069753
47	0xbc84b1eb	-0.01619812
48	0x3d92cc29	0.07167847
49	0xbd019257	-0.0316337
50	0xbd8d0b61	-0.06886936
51	0xbdad001a	-0.08447285
52	0xbbd8a85d	-0.0066118673
53	0xbdb4fbca	-0.088370875
54	0x3d7cb4b8	0.061695784
55	0x3c16d719	0.009206557
56	0x3ce3f2e9	0.02782579
57	0x3b6c152f	0.0036023369
58	0xbc9d2ed1	-0.019187363
59	0x3da2c029	0.07946808
60	0x3d60852d	0.054814506
61	0x3d940eff	0.07229423
62	0xbd8ee8a0	-0.069779634
63	0x3cb6b7b6	0.022304397
64	0xbdb47dbd	-0.08813045
65	0xbcbe5a8e	-0.02323654
66	0xbc912d97	-0.017721934
67	0xbd7d2192	-0.061799593
68	0x3da7e130	0.08197248
69	0xbd2bed42	-0.041974314
70	0xbc36e94e	-0.011164023
71	0xbd054f72	-0.032546468
72	0x3d9ab579	0.075541444
73	0x3da856c6	0.08219676
74	0xbdb77547	-0.08957916
75	0xbcf63fb0	-0.030059665
76	0xbd50e65e	-0.051000945
77	0x3c979d73	0.018507695
78	0x3d473b8a	0.048640765
79	0xbcfbc7a1	-0.030734839
80	0xbd9545c6	-0.07288699
81	0xbd452784	-0.04813339
82	0xbcbf4a82	-0.023350958
83	0xbd90bcf8	-0.07067293
84	0xbc818380	-0.015809774
85	0xbd977964	-0.073962
86	0x3bd8873a	0.006607917
87	0x3da13e88	0.07873255
88	0x3d6fae2e	0.05851572
89	0x3c6dcb9a	0.014513874
90	0x3d063717	0.03276738
91	0x3d84c749	0.06483323
92	0xbd08ff6d	-0.033446718
93	0xbdaf2798	-0.08552474
94	0xbd19730c	-0.037463233
95	0xbc0da6ce	-0.008645726
96	0x3c3d38e6	0.01154921
97	0x3d864d9a	0.0655777
98	0x3d3877c5	0.045036096
99	0x3c279afd	0.010229823
100	0xbd97e4d9	-0.07416696
101	0xbdb107ac	-0.086440414
102	0xbd967845	-0.07347158
103	0x3d41ea08	0.04734233
104	0x3d63af86	0.055587314
105	0x3d173c7e	0.036922924
106	0xbd996899	-0.074906535
107	0x3ccb6987	0.024830593
108	0x3c406b7e	0.011744378
109	0x3d165330	0.036700428
110	0x3dacccd6	0.08437507
111	0x3d5b7c2f	0.053585228
112	0xbdab68df	-0.08369612
113	0x3ba88c4a	0.005143677
114	0xbda934c8	-0.0826202
115	0x3d9c886b	0.07643207
116	0xbd62c8fa	-0.055367447
117	0x3d3f73cc	0.046741292
118	0x3cfa151f	0.03052765
119	0xbd836f4c	-0.064177126
120	0xbc7bf7da	-0.015378917
121	0x3d99931b	0.07498761
122	0xbd3bbece	-0.045836262
123	0x3d9e4851	0.07728637
124	0xbd96a2ec	-0.07355294
125	0xbd358cab	-0.044323605
126	0xbd5d6080	-0.054047108
127	0xbca47f0c	-0.020080112
128	0x3bf07e01	0.0073392396
129	0x3d92efa5	0.07174615
130	0xbd2c08f3	-0.042000722
131	0xbad40909	-0.0016177009
132	0x3d949aa2	0.07256056
133	0xbd586249	-0.052828107
134	0x3d2773a5	0.04088177
135	0x3d5cb393	0.053882193
136	0x3d92f803	0.07176211
137	0x3d12f0a6	0.03587403
138	0x3c9fb9c6	0.019497763
139	0x3d4c546b	0.049885195
140	0x3d995d26	0.0748847
141	0xbc726b78	-0.01479613
142	0xbd84026d	-0.06445775
143	0xbd9ed890	-0.0775615
144	0x3d5eb30f	0.054369982
145	0xbd09ed45	-0.033673543
146	0x3d8cf298	0.068822086
147	0x3cd8aa5d	0.026448423
148	0xbd2ed80b	-0.042686503
149	0xbd78f9b9	-0.06078503
150	0xbd5463ca	-0.05185298
151	0x3da4a9e0	0.080402136
152	0x3da6d9c3	0.081470035
153	0x3d1e389f	0.038628217
154	0xbd34a112	-0.04409892
155	0x3d6bd913	0.057580065
156	0x3d8b6ddc	0.068080634
157	0x3d5a95fa	0.053365685
158	0x3dac7a80	0.084218025
159	0x3d902c2c	0.07039675
160	0x3c9c42f3	0.019074893
161	0x3db31fb0	0.08746278
162	0xbd877040	-0.06613207
163	0xbd06dc09	-0.032924686
164	0x3d239755	0.039939243
165	0xbd4fc077	-0.05072066
166	0xbc656e14	-0.014003295
167	0x3d5114ce	0.05104523
168	0x3a8e6791	0.0010864605
169	0x3d7e4e49	0.062086377
170	0xbccb6081	-0.02482629
171	0x3d860b2f	0.06545102
172	0x3c0face0	0.008769244
173	0x3d19ed50	0.037579834
174	0xbdb6cf89	-0.08926303
175	0x3d614114	0.054993704
176	0xbca95ee6	-0.020675134
177	0xbd5d9485	-0.054096717
178	0x3cceac2d	0.025228584
179	0x3da43f6f	0.080199115
180	0xbd9b51d0	-0.07583964
181	0x3d9229ee	0.07136904
182	0x3d3c8e65	0.046034236
183	0x3d652503	0.0559435
184	0xbd96f8b1	-0.07371653
185	0xbda91738	-0.08256382
186	0x3d43347e	0.047657482
187	0x3d9f60bf	0.07782125
188	0x3d935e76	0.07195751
189	0xbc025849	-0.007955619
190	0x3da4e76b	0.08051952
191	0xbc856c3d	-0.016286964
192	0x3c706122	0.014671596
193	0xbd82598e	-0.063647375
194	0xbd54ced9	-0.051955078
195	0xbcf14a76	-0.029454451
196	0xbd6c579e	-0.057700746
197	0x3da082c6	0.07837443
198	0x3c4bf930	0.012449548
199	0xbdb500f8	-0.088380754
200	0xbbbdb90c	-0.0057898816
201	0x3d8320c7	0.06402736
202	0xbd78874e	-0.06067591
203	0x3d5a0514	0.0532275
204	0xbc9597cd	-0.01826086
205	0xbd42f56e	-0.04759734
206	0x3b8d97c3	0.00432107
207	0x3daa5ca7	0.08318453
208	0x3c2835f2	0.010266768
209	0xbdadd742	-0.08488323
210	0xbda032c0	-0.0782218
211	0xbcab138b	-0.020883342
212	0xbc8c1ea9	-0.017104464
213	0x3d048a9c	0.03235875
214	0xbd6b3da0	-0.057431817
215	0x3d485011	0.048904482
216	0x3c485e4a	0.0122295115
217	0xbda0215d	-0.078188635
218	0xbdb720da	-0.08941813
219	0x3d89efdd	0.067352034
220	0x3dab1fa7	0.083556466
221	0xbbec2c5b	-0.007207436
222	0xbd536eb2	-0.05161924
223	0xbd1c63cc	-0.03818111
224	0xbcbe1693	-0.023204124
225	0xbd9625fe	-0.07331465
226	0xbcac1cd7	-0.021009846
227	0x3db641c7	0.08899265
228	0xbbfd865a	-0.007736963
229	0x3cda803b	0.026672473
230	0x3d37b514	0.044850424
231	0x3be34934	0.0069362167
232	0x3d77f7db	0.060539108
233	0xbd9a421b	-0.0753214
234	0xbc892966	-0.016743373
235	0xbcd4ef38	-0.025992975
236	0xba0530fd	-0.0005080847
237	0xbd4b90ff	-0.049698826
238	0xbcbbcad1	-0.022923859
239	0xbd4018a1	-0.046898488
240	0x3d777a72	0.060419507
241	0x3d9e36fc	0.07725331
242	0xbd3848ed	-0.044991422
243	0xbc909be3	-0.017652458
244	0xbd94b496	-0.072610065
245	0xbc9e4c92	-0.019323621
246	0xbda782e8	-0.08179265
247	0xbb99156e	-0.004671744
248	0xbd18eeb1	-0.03733701
249	0x3d29abf0	0.041423738
250	0x3d61689a	0.055031396
251	0x3be34067	0.0069351676
252	0x3c5191fe	0.012791155
253	0xbd8f8c18	-0.07009143
254	0x3d374d44	0.04475142
255	0x3d96ad98	0.07357329

layer2.bias f4 [64]
0	0xbd370034	-0.044677928
1	0x3cf17e75	0.029479245
2	0xbd62603c	-0.055267558
3	0x3d701415	0.0586129
4	0xbd001870	-0.031273305
5	0xbd76c748	-0.060248643
6	0x3d7c7404	0.06163408
7	0x3d8f34b8	0.06992477
8	0x3bbbb9b6	0.0057289256
9	0xbd302692	-0.043005534
10	0x3d4da6f1	0.050208036
11	0xbd79251f	-0.060826417
12	0x3da60bef	0.08107745
13	0x3cdafc85	0.026731739
14	0x3d73832c	0.059451267
15	0x3d52a03e	0.05142235
16	0xbbdf67b8	-0.006817784
17	0x3da2c241	0.07947207
18	0xbbdc37c5	-0.0067205154
19	0xbd7630c8	-0.060105115
20	0x3db24c8d	0.08706007
21	0x3d3aab39	0.045573447
22	0x3d22ab2c	0.039714023
23	0xbcbea1e8	-0.023270562
24	0xbb6bfb80	-0.003600806
25	0xbc9fc808	-0.019504562
26	0x3c9a50c5	0.018837342
27	0x3cca217a	0.024674166
28	0xbcadf676	-0.021235686
29	0xbd159214	-0.036516264
30	0x3b0a141f	0.0021069122
31	0xbd9f398b	-0.07774647
32	0xbd218c8c	-0.039440677
33	0xbd42b0bb	-0.047531825
34	0x3d804612	0.06263365
35	0x3d5341b2	0.051576324
36	0xbce83004	-0.028343208
37	0x3db37ef6	0.0876445
38	0x3daafdd2	0.08349194
39	0x3d5606db	0.05225263
40	0xbb98098c	-0.00463981
41	0xbd82cd2d	-0.063867904
42	0x3d57f264	0.052721396
43	0x3dada7f3	0.084792994
44	0x3cd128d5	0.025532166
45	0xbd9f929b	-0.07791635
46	0x3d9fc38a	0.07800968
47	0x3d6d08a1	0.057869557
48	0xbd43c71e	-0.047797315
49	0xbcc03b17	-0.023465676
50	0xbd99bcd9	-0.07506723
51	0xbd0e4c6a	-0.034740843
52	0xbd2cce61	-0.042189006
53	0xbc88cb6c	-0.016698562
54	0xbd5784e0	-0.052616954
55	0x3aa99f2d	0.0012941115
56	0xbc221967	-0.009893752
57	0x3d8d1a49	0.06889779
58	0xbd96ed5b	-0.07369491
59	0x3c8fa7a0	0.017535985
60	0xbd5e8983	-0.05433036
61	0xbd886daa	-0.06661542
62	0x3d92d272	0.071690455
63	0x3c06bf94	0.008224387

layer3.weight f4 [10, 64]
0	0xbdc4950c	-0.09598741
1	0xbdb2d65e	-0.087322935
2	0xbdd25a8a	-0.10271175
3	0xbd3f79b0	-0.04674691
4	0xbd2e7e94	-0.042601183
5	0x3d42e2b4	0.047579482
6	0xbdcde400	-0.10053253
7	0x3ddaa640	0.10676241
8	0x3d3d4db0	0.046216667
9	0xbdcc77cc	-0.09983787
10	0xbddd60be	-0.10809468
11	0x3cfc4620	0.030795157
12	0xbd2d57d0	-0.042320073
13	0xbd15fa34	-0.036615565
14	0x3dddfc40	0.108391285
15	0xbdd35c7e	-0.10320376
16	0x3cb1b318	0.021691844
17	0x3df1c75e	0.118056044
18	0x3d69e780	0.05710554
19	0x3d5d1dc0	0.05398345
20	0xbd99d08a	-0.07510479
21	0x3db5eb66	0.08882789
22	0xbdc5bb1a	-0.096548274
23	0x3d245970	0.040124357
24	0x3d29b0dc	0.041428432
25	0xbcf06578	-0.02934526
26	0x3dd1e9e4	0.10249689
27	0xbd17b024	-0.037033215
28	0xbd625a58	-0.05526194
29	0xbdb907b6	-0.09034674
30	0xbc10a580	-0.008828521
31	0xbdf6e746	-0.12055831
32	0xbcfb11c8	-0.030648127
33	0xbdbb26be	-0.09138249
34	0xbcc61290	-0.024178773
35	0xbd8bcdfe	-0.06826399
36	0xbd7dabc4	-0.061931387
37	0xbdf6be78	-0.12048048
38	0xbdb57b96	-0.08861463
39	0xbd3ad060	-0.045608878
40	0xbda38956	-0.07985179
41	0x3d7651b4	0.060136512
42	0xbdccd308	-0.100011885
43	0xbd06de28	-0.03292671
44	0xbde91e2a	-0.113827065
45	0xbd42ceb0	-0.047560394
46	0x3d1c5324	0.038165227
47	0xbd071df0	-0.032987535
48	0xbcfa9090	-0.03058651
49	0x3c8660d0	0.016403586
50	0xbdaffcd8	-0.08593148
51	0xbd0d4518	-0.03448972
52	0x3d2e57a8	0.042564064
53	0x3d426b54	0.047465637
54	0xbd8d3e0a	-0.06896599
55	0xbda419e2	-0.08012749
56	0xbdd39c48	-0.10332543
57	0x3d9d4836	0.07679789
58	0xbdd3ccea	-0.10341819
59	0xbd83b94c	-0.06431827
60	0xbd1e65ac	-0.03867118
61	0x3dc69df6	0.096980974
62	0x3d956386	0.07294373
63	0x3dcabd0a	0.098993376
64	0x3d8d0f54	0.06887689
65	0xbd8046a0	-0.06263471
66	0x3d3b5aa0	0.045740724
67	0xbd3187b8	-0.043342322
68	0xbdb6998a	-0.08916004
69	0x3cc2f848	0.02380003
70	0xbd50c448	-0.05096844
71	0x3b08c580	0.0020869672
72	0xbd0f3c34	-0.034969524
73	0x3cfc45c8	0.030794993
74	0x3df8aae4	0.1214197
75	0xbdb0812c	-0.086183876
76	0x3d951cfa	0.072809175
77	0xbd3d7c08	-0.046260864
78	0x3de17a78	0.11009687
79	0xbdaaa72a	-0.08332665
80	0x3d90d2bc	0.070714444
81	0x3ded7f52	0.1159655
82	0x3cab1fe0	0.020889223
83	0xbdc5f28c	-0.09665403
84	0x3be6ee80	0.0070474744
85	0x3cd56f68	0.0260541
86	0xbc9bcf18	-0.019019648
87	0x3c9e3cb0	0.019316047
88	0x3de7e4e0	0.11322951
89	0x3c54d470	0.012990102
90	0x3c694f80	0.014240146
91	0x3dd8e0ec	0.105897754
92	0xbc1926f0	-0.009347662
93	0xbd860592	-0.06544031
94	0x3b5bbf80	0.003353089
95	0xbd532c48	-0.0515559
96	0x3c6018c0	0.013677776
97	0x3d39e128	0.04538074
98	0xbd4436f8	-0.047903985
99	0x3d9243cc	0.071418375
100	0xbdbff4ae	-0.09372841
101	0x3d59a4c8	0.053135663
102	0xbd342b40	-0.04398656
103	0x3d194a94	0.03742464
104	0x3c64c2e0	0.013962477
105	0xbdda82ee	-0.10669504
106	0xbda97612	-0.08274473
107	0xbc8989e8	-0.016789392
108	0xbdd4380a	-0.10362251
109	0xbdf653a2	-0.120276704
110	0x3c841578	0.016123518
111	0xbd3a1e68	-0.045439154
112	0xbc862ea8	-0.01637967
113	0x3cadde20	0.021224082
114	0x3df8ee1a	0.12154789
115	0xbce23330	-0.027612299
116	0xbdcc5c22	-0.099785104
117	0xbd270c90	-0.040783465
118	0xbd65fce8	-0.056149393
119	0x3dc77272	0.097386256
120	0xbd0390c0	-0.032120466
121	0xbd1fa0a0	-0.038971543
122	0xbd56c398	-0.052432626
123	0x3c7fd340	0.015614331
124	0x3c44b270	0.012005433
125	0xbdba5682	-0.09098531
126	0xbc488340	-0.012238324
127	0xbd17938c	-0.037005946
128	0x3d61d7ac	0.05513732
129	0xbded5d98	-0.11590117
130	0x3da1b5f0	0.0789603
131	0x3dfc6ec8	0.12325817
132	0x3de3c2ac	0.11121115
133	0x3dcaea7c	0.099080056
134	0x3db1f040	0.08688402
135	0x3daf8f6e	0.08572279
136	0x3c9f4f70	0.019447058
137	0x3c951a78	0.018201098
138	0x3d7ddde4	0.06197919
139	0x3d8c1e40	0.06841707
140	0x3daaacb8	0.08333725
141	0x3dc2c80c	0.09510812
142	0xbcf06208	-0.02934362
143	0x3ca2c9a8	0.019871548
144	0xbdec9a1a	-0.1155283
145	0x3cf434c8	0.029810324
146	0x3de511be	0.11185025
147	0x3b638880	0.0034718812
148	0xbd9a7b0e	-0.07543002
149	0x3d38f814	0.04515846
150	0xbd2f2c50	-0.04276687
151	0x3d58b454	0.05290635
152	0xbdd52b1a	-0.104086116
153	0x3deb2e2c	0.11483416
154	0x3c6427c0	0.013925493
155	0xbdf82f24	-0.12118366
156	0xbd77a434	-0.06045933
157	0x3d2b9c0c	0.041896865
158	0x3d90fb30	0.0707916
159	0x3a142800	0.00056517124
160	0xbdd2bb9a	-0.102896884
161	0xbd2ccaf8	-0.042185754
162	0xbdce9284	-0.100865394
163	0x38e42000	0.00010877848
164	0xbd587ff4	-0.0528564
165	0x3d22b16c	0.039719984
166	0x3d135598	0.0359703
167	0x3db331d4	0.08749738
168	0x3cf7f918	0.030270144
169	0xbdb7fabc	-0.08983371
170	0x3da05a78	0.078297555
171	0x3d6a1690	0.057150424
172	0x3d888fd4	0.06668058
173	0x3cc6c1f0	0.024262398
174	0xbdf460c6	-0.119325206
175	0x3c05f040	0.008174956
176	0xbd8e732a	-0.069555596
177	0x3db0cdcc	0.08633003
178	0x3ca800e0	0.02050823
179	0x3cebd6d0	0.028788954
180	0xbd86e1ac	-0.06586012
181	0xbdf8908c	-0.12136945
182	0x3d2cdb20	0.04220116
183	0xbd2ea478	-0.04263732
184	0xbd754abc	-0.059885725
185	0x3db7bfea	0.089721516
186	0xbd8347c2	-0.06410171
187	0xbd899b28	-0.06719047
188	0xbdc8e334	-0.098089606
189	0xbcf37b48	-0.029721871
190	0xbc68c9d0	-0.014208272
191	0x3c12cd30	0.008960053
192	0x3d3f1ef8	0.046660393
193	0xbcc5ae08	-0.024130836
194	0x3d90718e	0.07052909
195	0x3dc5fd94	0.09667507
196	0x3c7aaac0	0.015299499
197	0xbc146630	-0.0090575665
198	0xbdd0c730	-0.10194242
199	0xbb620c40	-0.0034492165
200	0x3cf2ce28	0.029639319
201	0xbdf9bd44	-0.12194303
202	0xbd285094	-0.04109247
203	0xbde17218	-0.1100809
204	0xbdc281ec	-0.09497437
205	0x3df8edb8	0.12154716
206	0x3df9ba4a	0.12193735
207	0xbce26d20	-0.027639925
208	0x3dd153c4	0.10221055
209	0x3ccdf4a8	0.025141075
210	0x3dbcfec8	0.09228283
211	0xbc48acb0	-0.012248203
212	0xbd3bf200	-0.045885086
213	0xbd66c2c0	-0.05633807
214	0x3d34ed9c	0.044171914
215	0x3df652e2	0.120275274
216	0xba8c6b80	-0.001071319
217	0xbd4943ec	-0.04913704
218	0x3c4eb8f0	0.012617335
219	0x3d9d80c8	0.07690579
220	0xbdd51672	-0.10404672
221	0x3d839608	0.064251006
222	0x3d20ea60	0.039286017
223	0x3d12d724	0.035849705
224	0x3d0406cc	0.032233045
225	0xbdde727e	-0.108616814
226	0xbd76a78c	-0.06021838
227	0xbda9c6c4	-0.08289865
228	0x3da3f364	0.080054075
229	0x3d92f446	0.07175498
230	0x3d3bbd60	0.0458349
231	0xbcbec978	-0.023289427
232	0x3db5accc	0.08870849
233	0x3d5772e4	0.052599803
234	0x3de35020	0.11099267
235	0x3dba33d2	0.09091915
236	0x3dc6901a	0.09695454
237	0xbd575e48	-0.052580148
238	0x3dfcf992	0.12352289
239	0xbdcfbee6	-0.10143833
240	0xbdf275f8	-0.11838907
241	0xbda6418c	-0.08117971
242	0xbdf217d6	-0.118209526
243	0xbd6ef488	-0.058338672
244	0xbd926898	-0.07148856
245	0x3d6a80f8	0.0572519
246	0xbd19c428	-0.037540585
247	0x3c90e808	0.017688766
248	0xbd9cf76a	-0.07664378
249	0xbdb3b4ee	-0.08774744
250	0x3dc22c84	0.09481147
251	0xbd7ed2b8	-0.062212676
252	0x3dfc11a6	0.12308054
253	0x3ce40430	0.027834028
254	0xbdce08d6	-0.10060279
255	0x3cf0d5c0	0.029398799

layer3.bias f4 [10]
0	0xbcc6bcb8	-0.02425991
1	0x3ca67fe8	0.020324662
2	0x3c826be8	0.015920594
3	0xbc069c00	-0.008215904
4	0xbdbaf574	-0.09128848
5	0x3dfbc8d6	0.12294166
6	0xbd88a482	-0.066720024
7	0x3da6bdf6	0.08141701
8	0x3dac63f4	0.08417502
9	0xbdf657cc	-0.12028465
